g1_policy(二代21)（复件）.onnx (onnx, 903543 bytes, 10 tensors)

mlp_1/sub/ReadVariableOp:0 f4 [103]
0	0x3c4bea25	0.012445961
1	0x3c18bf03	0.0093228845
2	0x3ce6da67	0.028180314
3	0x3b0c40e7	0.002140099
4	0xbb893c26	-0.0041880785
5	0x3c3e0384	0.011597518
6	0xbc81b3bf	-0.01583278
7	0xbbb20038	-0.005432155
8	0xbf7c1db0	-0.984828
9	0xbb8bf891	-0.004271575
10	0xba3cd51e	-0.0007203388
11	0x3ad7c24d	0.0016461104
12	0xbad1841a	-0.0015984804
13	0x3a454994	0.00075259176
14	0xbaf69266	-0.0018811941
15	0x3dd07808	0.10179144
16	0x3b962660	0.0045822114
17	0x3c3bb71d	0.011457232
18	0xbd934225	-0.071903504
19	0xb9322172	-0.00016987862
20	0x3af32a49	0.0018552031
21	0x3dc9dc71	0.09856499
22	0x3d1092b1	0.035296146
23	0xbc8cd0ba	-0.017189372
24	0xbd005d70	-0.03133911
25	0xbc36ca8a	-0.0111566875
26	0xbd3ab83c	-0.045585856
27	0xbc76eb6f	-0.01507078
28	0x3d006c06	0.03135302
29	0xb90e6e00	-0.00013583153
30	0x3cd950a5	0.026527712
31	0x3b8fcd51	0.0043884893
32	0x3d5d15b5	0.05397578
33	0xbbc18a8e	-0.0059064096
34	0xbca97ef2	-0.020690415
35	0xbd28c60f	-0.04120451
36	0xbc3c2768	-0.011484005
37	0x3cb1fabe	0.021726009
38	0x3c212b15	0.009836932
39	0x3d46edb2	0.048566528
40	0xb9f65c42	-0.00046989514
41	0x3b3767ee	0.002798553
42	0xbc787ccf	-0.015166475
43	0x3c0d6547	0.008630103
44	0x3af5a85c	0.0018742192
45	0xba03ff2f	-0.0005035279
46	0x3b9cc44f	0.004784144
47	0xbb033ce3	-0.0020025305
48	0x3c2b694b	0.0104621155
49	0xbc37d4a8	-0.011220135
50	0x3bab98ab	0.0052367053
51	0xba8d9687	-0.0010802307
52	0xbba8a01e	-0.0051460406
53	0x3b5945c7	0.0033153163
54	0xb9fc2230	-0.00048090657
55	0xbca51139	-0.020149814
56	0xbdc0f3f6	-0.09421532
57	0xbb4384fa	-0.00298339
58	0x3c6e7d8f	0.014556303
59	0x3d048117	0.032349672
60	0x3b0b56fa	0.002126156
61	0x3c22d585	0.009938602
62	0x3aef90cd	0.0018277407
63	0xbdbea6ae	-0.093091354
64	0xba3eabf1	-0.0007273546
65	0xbbed9e0c	-0.0072515067
66	0x3d242bf1	0.04008097
67	0xbadb9b81	-0.0016754718
68	0x3c5ac43a	0.013352448
69	0xb9aa7499	-0.000325118
70	0xbcbc343c	-0.022974126
71	0x3e4c7e44	0.19970042
72	0xbe0158b8	-0.126315
73	0xbe1555ba	-0.14583483
74	0xbd9b0dfe	-0.07571028
75	0xbbe4ae5e	-0.006978794
76	0xbdd04999	-0.10170288
77	0xbe5fea55	-0.21866734
78	0x3e150019	0.14550819
79	0xbe19beae	-0.15014145
80	0xbda09a1b	-0.07841893
81	0x3ccc74e3	0.02495808
82	0xbd8160da	-0.06317301
83	0xbca8526c	-0.020547114
84	0xbe0df521	-0.1386304
85	0xbd21ecab	-0.039532345
86	0x3dc5a6db	0.09650966
87	0x3c253c7f	0.010085224
88	0x3cc2a2db	0.023759296
89	0x3bfede11	0.007777937
90	0xbd6e53e3	-0.05818547
91	0x3c3fdedf	0.011710851
92	0xbd561833	-0.052269172
93	0xbdefda3a	-0.11711545
94	0xbd04c95c	-0.032418594
95	0x3c6e35b7	0.014539174
96	0x3cbeab90	0.023275167
97	0xbd8ebdcf	-0.06969797
98	0xbcc351f9	-0.023842799
99	0x3b3f8228	0.0029221866
100	0xbb3f8310	-0.0029222406
101	0x3b713e66	0.0036810874
102	0xbb713e6a	-0.0036810883

mlp_1/MLP_0_1/hidden_3_1/Cast/ReadVariableOp:0 f4 [128, 58]
0	0x3dec7892	0.115464345
1	0xbd566fe0	-0.052352786
2	0x3c42a2de	0.011879651
3	0xbcd69014	-0.026191749
4	0x3de507a7	0.111831
5	0xbd7f6dbd	-0.062360514
6	0xbd63520c	-0.055498168
7	0x3d2422d6	0.040072285
8	0xbcf59edf	-0.029982982
9	0x3db0be39	0.08630032
10	0x3d2d0283	0.042238723
11	0xbdc900b7	-0.098145895
12	0xbd011c11	-0.031520907
13	0x3cbd7b9b	0.023130229
14	0x3b1843c3	0.0023233749
15	0xbd86429a	-0.06555672
16	0x3dd9bcc4	0.10631707
17	0xbbc1c071	-0.0059128334
18	0x3ca653a3	0.020303553
19	0xbd30469e	-0.043036096
20	0xbc08951b	-0.008336331
21	0x3d1fac33	0.03898258
22	0x3c1e7963	0.009672496
23	0xbced23ce	-0.028947737
24	0x3b909154	0.0044118557
25	0xbc55431d	-0.013016489
26	0x3cecda97	0.028912826
27	0xbb152289	-0.002275618
28	0xbc99c4c9	-0.018770592
29	0x3d32e800	0.043678284
30	0xbb278227	-0.0025559755
31	0x3deeedb7	0.11666434
32	0x3d2b2af6	0.041789018
33	0x3d20a059	0.03921542
34	0xbd961b1d	-0.0732939
35	0x3d9d37c2	0.076766506
36	0x3ce2bc14	0.027677573
37	0x3d2bf719	0.041983698
38	0x3ccf3ceb	0.025297603
39	0x3c23a392	0.009987729
40	0x3c195868	0.009359457
41	0x3e35c7ae	0.17751953
42	0x3d848d81	0.06472302
43	0x3c7e893f	0.015535652
44	0x3d8cb423	0.06870296
45	0x3d1d22bf	0.038363215
46	0x3d05c749	0.032660756
47	0x3dae4bbf	0.08510541
48	0x3d003870	0.031303823
49	0xbc8683e8	-0.01642032
50	0xbc4b3610	-0.012403026
51	0x3da09611	0.07841123
52	0x3cb8d8b5	0.022564271
53	0x3c4894b8	0.012242489
54	0x3c81c8e7	0.015842868
55	0xbd108ce8	-0.03529063
56	0x3d99528d	0.074864484
57	0x3d1e4028	0.038635403
58	0x3d536fd4	0.05162032
59	0xbd634e96	-0.055494867
60	0x3b2435f9	0.0025056584
61	0x3d320098	0.043457597
62	0xbd3d4720	-0.04621041
63	0x3cc01fc8	0.023452654
64	0x3dd73af6	0.10509293
65	0xbd4b14a1	-0.04958022
66	0x3cfff6bb	0.03124558
67	0x3d449fb5	0.04800387
68	0xbdce121d	-0.100620486
69	0xbb69ceb4	-0.0035676183
70	0xbd18f840	-0.037346125
71	0x3aae95d8	0.0013319803
72	0xbe524d55	-0.20537312
73	0xbd46362f	-0.048391517
74	0xbd2b6b7d	-0.041850556
75	0xbd11254f	-0.03543597
76	0x3d928927	0.07155066
77	0xbcf6b646	-0.030116212
78	0x3ac89a1c	0.0015304717
79	0x3bdc2099	0.006717753
80	0x3c756ba0	0.014979273
81	0xbd10e3d8	-0.03537354
82	0xbd12c2be	-0.035830252
83	0x3bd55744	0.006510647
84	0xbcb2ba04	-0.021817215
85	0xbcb29532	-0.021799657
86	0xbd6c079f	-0.057624456
87	0x3d8374b0	0.06418741
88	0x3a2f5276	0.0006688008
89	0x3d5209ef	0.051279005
90	0x3b021055	0.001984616
91	0xbd462797	-0.0483776
92	0x3a3daa6e	0.0007235174
93	0x3d0d3fd7	0.03448471
94	0x3d388bec	0.045055315
95	0x3d8c3363	0.06845739
96	0xbd165f15	-0.03671177
97	0xbbcb6595	-0.006207178
98	0x3d11c50f	0.03558832
99	0x3d059ab4	0.03261824
100	0x3cbddf1d	0.023177678
101	0x3e157c09	0.14598097
102	0x3d2fd4ec	0.042927667
103	0x3ceeb198	0.029137418
104	0xbbc1f17a	-0.005918679
105	0x3d16cb14	0.036814764
106	0xbcbf85e1	-0.023379268
107	0x3d27a88e	0.04093223
108	0x3cf2a1d6	0.029618185
109	0x3cd91156	0.026497524
110	0x3b948e94	0.004533598
111	0x3c1e1ed7	0.0096509075
112	0x3d6e7ba2	0.058223374
113	0x3cab2570	0.020891875
114	0xbc938c20	-0.018011153
115	0x3cd91b01	0.026502134
116	0x3d66a21b	0.05630694
117	0xbcf532dc	-0.029931478
118	0xbc47c42a	-0.012192765
119	0xbd1c3b9f	-0.038142797
120	0xbd899b5a	-0.06719084
121	0xbca83b10	-0.020535976
122	0xbb7c96a6	-0.0038541942
123	0x3d6c4321	0.057681207
124	0xbce9695d	-0.028492624
125	0x3e597375	0.2123545
126	0x3e099a4e	0.13437769
127	0x3d454099	0.04815731
128	0xbc9a0b36	-0.018804174
129	0x3dcc576c	0.09977612
130	0xbbfc06e2	-0.00769125
131	0x3d2fcfe7	0.04292288
132	0x3c16f503	0.009213689
133	0x3d19f27f	0.037584778
134	0x3d34b07c	0.04411362
135	0x3d996197	0.07489317
136	0xbd694daf	-0.05695885
137	0x3c4eae0e	0.01261474
138	0x3df99030	0.12185705
139	0xbc83c352	-0.016084347
140	0x3aeab751	0.0017907416
141	0x3d1fb4bc	0.03899072
142	0x3d88a3cc	0.06671867
143	0xbcd9cda3	-0.026587313
144	0x3be7cd5e	0.007074042
145	0xbdb3c42d	-0.08777652
146	0xbdaa7960	-0.08323932
147	0xbe00d95a	-0.12582913
148	0x3d30a4f3	0.043126058
149	0xbd4051da	-0.04695306
150	0xbc499ed0	-0.01230593
151	0x3d4dc056	0.050232254
152	0xbc979835	-0.018505195
153	0x3e036336	0.12830815
154	0x3d640203	0.05566598
155	0xbccd5088	-0.025062814
156	0xbc291de6	-0.01032207
157	0xbdf51597	-0.119670086
158	0x3d80adaa	0.06283124
159	0xbcf13c2c	-0.029447637
160	0x3d2608c7	0.040535714
161	0x3c1c8e47	0.009555406
162	0x3e063493	0.13105993
163	0x3da7f9cf	0.08201944
164	0x3b85770d	0.00407303
165	0xbc4ddc63	-0.012564751
166	0x3d8795f0	0.06620395
167	0x3bf50a0d	0.007478005
168	0x3dc4ee41	0.09615756
169	0x3b7864e1	0.0037901925
170	0xbbeb9513	-0.007189402
171	0x3d7248e2	0.059151538
172	0xbcfcd5da	-0.030863691
173	0x3ca1876f	0.0197179
174	0x3d833fc1	0.064086445
175	0xbc0349c0	-0.008013189
176	0x3ac9dcf9	0.0015400938
177	0x3cc78d48	0.02435936
178	0x3e5f7cb2	0.21824911
179	0x3d44d44e	0.048054032
180	0x3d89b834	0.06724587
181	0xbcdb00c0	-0.026733756
182	0x3a7a2691	0.000954249
183	0x3d8583e0	0.06519294
184	0x3e5b617a	0.21423903
185	0xbd1554b0	-0.036457717
186	0x3c21d0b9	0.0098764235
187	0x3d08a794	0.03336294
188	0x3d5efdb6	0.054441176
189	0x3c382578	0.011239402
190	0xbc4825c9	-0.01221604
191	0xbbd4e2f8	-0.0064967833
192	0xbcb4ce29	-0.022070961
193	0x3db2c03a	0.087280706
194	0xbd846f36	-0.06466524
195	0xbc5e4b0b	-0.013567696
196	0x3d546aee	0.05185979
197	0x3d81a9d2	0.06331219
198	0x3c60cd64	0.013720844
199	0xba241f65	-0.00062607817
200	0xbbab52ef	-0.0052283923
201	0xbe08f3fc	-0.13374323
202	0xbb87cf48	-0.004144583
203	0xbe461fa0	-0.19348001
204	0xbe3e7eab	-0.18603007
205	0xbe72f7c0	-0.23727322
206	0xbe6ce85b	-0.23135512
207	0xbdef1cdc	-0.11675426
208	0x3b104857	0.0022015774
209	0xbe6a0337	-0.22852789
210	0xbde6f2c7	-0.11276775
211	0xbe7a68ec	-0.24454087
212	0xbe458db5	-0.19292338
213	0xbd33fce9	-0.043942366
214	0x3d2a8bf8	0.04163739
215	0xbe3e401c	-0.18579143
216	0xbdb33fd0	-0.08752406
217	0xbe04dfee	-0.12976047
218	0xbe93bc80	-0.28854752
219	0xbe7e5f7a	-0.24841109
220	0xbf05396d	-0.5204075
221	0xbf051fed	-0.5200184
222	0xbe7a6bdc	-0.24455208
223	0xbe49d580	-0.1971035
224	0xbe45693f	-0.1927843
225	0xbe8244d2	-0.2544313
226	0xbe908019	-0.2822273
227	0xbf0192e4	-0.5061476
228	0xbeea9fb6	-0.45824975
229	0xbe94b4c7	-0.29044172
230	0xbe58bfd0	-0.2116692
231	0xbe7919b4	-0.24326211
232	0xbc6135bb	-0.0137457205
233	0xbd659524	-0.056050435
234	0x3c87b4ce	0.016565707
235	0xbdd2f07d	-0.10299776
236	0xbcf07ddc	-0.02935689
237	0x3d1159d9	0.035486076
238	0xbd019208	-0.031633407
239	0x3e1a472b	0.15066211
240	0xbd3b6408	-0.045749694
241	0x3d998ee3	0.074979566
242	0x3d85e035	0.06536905
243	0xbcf540b2	-0.029938076
244	0xbb51aafa	-0.003199278
245	0xbbf4b597	-0.0074679363
246	0xbd00fb62	-0.031489737
247	0xbd257994	-0.04039915
248	0xbd4a5a8c	-0.04940276
249	0x3cd67e7d	0.026183361
250	0xbe0f972b	-0.1402251
251	0x3cf111af	0.029427378
252	0x3c7dda9b	0.015494014
253	0x3c9ed638	0.019389257
254	0xbc90bef0	-0.017669171
255	0xbdbbe846	-0.09175162

mlp_1/MLP_0_1/hidden_3_1/BiasAdd/ReadVariableOp:0 f4 [58]
0	0xbd52413c	-0.051331744
1	0x3dacd9ca	0.084399775
2	0xbb9f5337	-0.004862215
3	0xbe70d7c5	-0.2351981
4	0xbd23d6ed	-0.03999989
5	0xbcfcda69	-0.030865865
6	0xbdacfa9e	-0.08446239
7	0xbd828a13	-0.06373992
8	0x3d056e82	0.03257609
9	0xbe67ff01	-0.2265587
10	0xbd2ec8cc	-0.042671964
11	0x3d595bd0	0.053066075
12	0xbd00d427	-0.031452324
13	0x3ca61bda	0.020276953
14	0xbe0562f7	-0.13026033
15	0x3c1bd65d	0.009511557
16	0x3d4a09bd	0.049325693
17	0x3cb02841	0.02150357
18	0x3cea694a	0.028614659
19	0x3ae8d08e	0.001776235
20	0xbcd8027c	-0.026368372
21	0x3d8d9c5d	0.069145896
22	0xbcef7e32	-0.02923498
23	0xbe06e474	-0.13173085
24	0xbc3f6bba	-0.011683399
25	0x3c945671	0.018107625
26	0xbd0dc0d0	-0.03460771
27	0xbdb4ddde	-0.0883138
28	0x3c243ab0	0.010023758
29	0xbefa2daf	-0.4886298
30	0xbeef2383	-0.4670678
31	0xbf4b0953	-0.793111
32	0xbeae162d	-0.34001294
33	0xbd4d8554	-0.05017598
34	0x3dbc22d4	0.091863304
35	0xbef86bf1	-0.48519853
36	0xbeee5e7f	-0.4655647
37	0xbf38d322	-0.72197163
38	0xbeb25958	-0.3483379
39	0xbcbd0643	-0.023074275
40	0x3e30c3cc	0.1726219
41	0xbf32e948	-0.6988721
42	0xbf4e140e	-0.8049935
43	0xbf90a609	-1.130067
44	0xbe8dd7eb	-0.27703795
45	0xbe74d740	-0.23910236
46	0xbd352f7f	-0.04423475
47	0xbe3496ae	-0.17635605
48	0x3d83efbd	0.06442211
49	0x3e0654a8	0.13118231
50	0x3df833b5	0.12119237
51	0xbe96a268	-0.2942078
52	0xbe4e4e7b	-0.20147125
53	0xbd5dcc52	-0.054149933
54	0xbdc8529b	-0.09781381
55	0x3d7094cf	0.058735665
56	0x3dad40ce	0.08459626
57	0x3d9d4a65	0.07680205

mlp_1/MLP_0_1/hidden_2_1/Cast/ReadVariableOp:0 f4 [256, 128]
0	0xbe27ff73	-0.1640604
1	0x3cf27cf5	0.0296006
2	0xbd1f5a3a	-0.038904406
3	0x3d51c99f	0.05121767
4	0xbdcbb274	-0.099461466
5	0x3cb2cf5a	0.021827389
6	0xbd8514b8	-0.064980924
7	0x3db1897c	0.08668801
8	0x3d848a23	0.0647166
9	0xbdcd2874	-0.100174814
10	0xbe097fca	-0.13427654
11	0x3d3aed43	0.045636427
12	0x3d017029	0.031601105
13	0x3d1199dc	0.035547122
14	0xbe20d5e8	-0.15706599
15	0xbda72de2	-0.08163048
16	0xbe6851ea	-0.22687498
17	0xbdca01c8	-0.09863621
18	0x3d0560f4	0.032563165
19	0xbc413473	-0.01179229
20	0xbde21517	-0.11039179
21	0x3dc1c42a	0.094612435
22	0xbbc70467	-0.006073523
23	0x3e37d2ed	0.17951556
24	0x3dc5109c	0.096223086
25	0x3d1116f0	0.035422266
26	0xbd5aabe7	-0.053386595
27	0xbb8e1889	-0.004336421
28	0xbdcdb1dc	-0.100436896
29	0xbe266aaa	-0.16251627
30	0x3c65575f	0.013997882
31	0x3d674919	0.056466196
32	0xbbba556f	-0.005686454
33	0x3d018de9	0.031629477
34	0x3df75669	0.12077028
35	0x3d80769f	0.06272625
36	0x3e4007ed	0.18753023
37	0xbe1efcb3	-0.15526085
38	0x3bb18ca4	0.005418377
39	0xbd5d0413	-0.053958964
40	0x3b6d8832	0.0036244509
41	0xbdc34c5d	-0.095360495
42	0x3d069f02	0.032866485
43	0x3db26b87	0.087119155
44	0xbe0505df	-0.12990521
45	0xbe15d928	-0.1463362
46	0x3cde3ba7	0.027128054
47	0x3d13a91d	0.03604995
48	0x3d9ee666	0.07758789
49	0x3e3a15da	0.18172398
50	0x3df4045f	0.11914896
51	0xbc69e2a1	-0.014275224
52	0x3e6abbfa	0.2292327
53	0xbca36d28	-0.01994951
54	0xbe2c10d1	-0.1680329
55	0xbad447d4	-0.0016195723
56	0xbceb6e62	-0.028739158
57	0xbd8a5c31	-0.06755865
58	0xbd944ee4	-0.0724161
59	0x3d7a2efd	0.061079968
60	0x3e113607	0.14180766
61	0x3d25da3c	0.040491328
62	0x3df60c23	0.12014034
63	0x3da0a556	0.07844035
64	0xbd838814	-0.06422439
65	0xbdb2b16a	-0.08725245
66	0x3d23351f	0.039845582
67	0x3c2a49a9	0.0103935385
68	0xbe097c3b	-0.13426296
69	0xbd884db8	-0.06655449
70	0xbe0ce49d	-0.13759084
71	0xbde9f1f4	-0.11423102
72	0x3d29456a	0.041325964
73	0xbda0718a	-0.07834156
74	0x3dc8fd88	0.09813982
75	0x3d0116d4	0.03151591
76	0xbd55927b	-0.052141648
77	0x3d2e2e91	0.042524878
78	0xbdf7d3f6	-0.12100975
79	0xbe0f6415	-0.14003022
80	0xbcfe6e9a	-0.031058598
81	0xbdb77aee	-0.08958994
82	0x3e3a40bf	0.18188761
83	0xbd2b8edc	-0.04188429
84	0xbd75cddc	-0.060010776
85	0xbe4331d7	-0.19061981
86	0xbdde7815	-0.108627476
87	0x3d6d6873	0.05796094
88	0xbc6776fa	-0.014127487
89	0xbc236f97	-0.009975336
90	0xbda97994	-0.08275142
91	0xbe297f30	-0.16552424
92	0x3ae20193	0.0017242901
93	0x3c20aeb8	0.009807281
94	0x3b958e06	0.0045640497
95	0xbe073787	-0.13204776
96	0xbdb1c543	-0.08680203
97	0xbee07e39	-0.438463
98	0x3db4326e	0.08798681
99	0xbb25113a	-0.002518727
100	0xbd0f96f3	-0.035056066
101	0xbd82a337	-0.06378787
102	0xbcdd5bf4	-0.027021386
103	0x3da43391	0.08017648
104	0x3e63b73f	0.22237872
105	0x3d328d10	0.04359156
106	0x3d261a45	0.040552396
107	0x3dc02c6b	0.09383472
108	0x3d8e444e	0.06946622
109	0xbd15c706	-0.036566757
110	0xbd124b38	-0.035716265
111	0xbc489c11	-0.01224424
112	0x3d2d17c2	0.042258985
113	0x3d8a9ed6	0.06768577
114	0x3d89e9fb	0.06734081
115	0x3de255f8	0.110515535
116	0xbb063ccb	-0.0020483013
117	0xbdf80cbc	-0.12111804
118	0xbdda9ad2	-0.10674061
119	0x3c974080	0.018463373
120	0xbd0aa3f3	-0.03384776
121	0xbea65fca	-0.32494956
122	0xbda62645	-0.08112768
123	0x3dc7abeb	0.097495876
124	0x3d7f10ac	0.06227176
125	0xbd84a404	-0.06476596
126	0xbe93b7f5	-0.28851286
127	0xbd52e525	-0.05148806
128	0x3dc19026	0.09451322
129	0x3da886b5	0.08228818
130	0xbd091cd2	-0.03347475
131	0xbe2a08c0	-0.166049
132	0xbd9c55b2	-0.076335326
133	0x3c50a687	0.012735016
134	0x3baf5f78	0.005351957
135	0x3e854358	0.26027942
136	0x3e82bbb9	0.25533846
137	0xbcd40160	-0.025879562
138	0xbd3adbc7	-0.045619752
139	0xbe1b00ca	-0.1513702
140	0xbe28fb43	-0.16502099
141	0xbd001c21	-0.031276826
142	0xbdf27ca2	-0.11840178
143	0xbd839a95	-0.064259686
144	0x3dfdc85e	0.12391733
145	0x3bd4224f	0.0064738165
146	0xbc98d1ce	-0.01865473
147	0x3cb990db	0.02265208
148	0x3d994a26	0.07484846
149	0x3a213efa	0.0006151047
150	0xbb94eb04	-0.0045446176
151	0xbdbb272f	-0.09138333
152	0xbdc17aa9	-0.09447224
153	0x3db41747	0.08793502
154	0x3db5ec3c	0.08882949
155	0xbe466554	-0.19374591
156	0xbd7511d7	-0.059831467
157	0xbd8454df	-0.064615004
158	0x3debac74	0.11507502
159	0x3e17a78f	0.14810012
160	0xbe312cab	-0.17302196
161	0xbe0ffa5d	-0.1406035
162	0xbdb37953	-0.08763375
163	0xbe4e46df	-0.20144223
164	0x3ddfcc79	0.10927672
165	0x3e03319c	0.12811893
166	0x3ea2e2a0	0.31813526
167	0x3e023f2f	0.12719415
168	0xbda0f65b	-0.078594886
169	0x3de4ccd2	0.11171879
170	0x3d66e8cd	0.05637436
171	0x3ad3b78a	0.0016152721
172	0x3ed26ebd	0.41100112
173	0x3dee3308	0.11630827
174	0x3de8ddb8	0.113704145
175	0x3cb44b68	0.022008613
176	0x3d8f7e00	0.070064545
177	0x3e08944b	0.1333782
178	0xbd71f339	-0.059069846
179	0xbde30476	-0.11084835
180	0xbe0b07ad	-0.13577147
181	0x3dc9a165	0.09845237
182	0xbd06111d	-0.032731164
183	0x3e2c8510	0.16847634
184	0xbc929316	-0.017892402
185	0x3df35f1d	0.11883376
186	0xbca6ed05	-0.020376692
187	0xbe9cfd71	-0.3066211
188	0xbdc61346	-0.09671645
189	0xbd399a47	-0.045313146
190	0x3cc0ee96	0.023551267
191	0x3d825b30	0.06365049
192	0x3dc71aa5	0.09721879
193	0xbdc450d9	-0.09585733
194	0xbc356b0e	-0.011072887
195	0xbb51d64c	-0.00320186
196	0x3c276122	0.010216029
197	0xbd80b0c7	-0.062837176
198	0xbe13d1d2	-0.14435509
199	0x3e03c834	0.1286934
200	0x3d804236	0.06262629
201	0x3d132aab	0.035929363
202	0x3de2be93	0.110715054
203	0xbe577608	-0.21041119
204	0x3e2be350	0.16785932
205	0xbc4d8b73	-0.012545454
206	0x3c5a8e72	0.013339626
207	0xbd047b9d	-0.03234445
208	0x3e26f182	0.16303065
209	0xbe3f37b3	-0.18673591
210	0x3d9b4b55	0.07582728
211	0xbd29c1e6	-0.04144468
212	0xbd5607a0	-0.052253366
213	0xbe1ce87d	-0.15323062
214	0x3e466a65	0.19376524
215	0x3e46053d	0.19337936
216	0x3e427b7d	0.1899242
217	0x3dd86905	0.10566906
218	0x3c1737a9	0.009229579
219	0xbd445f88	-0.04794267
220	0x3e07c2f7	0.13257967
221	0xbc9a10cc	-0.018806837
222	0xbe5ba79e	-0.2145066
223	0xbc79ac4b	-0.015238832
224	0x3cef1668	0.029185489
225	0x3d459d28	0.04824558
226	0x3cd60529	0.026125507
227	0x3c5c14ff	0.01343274
228	0xbd94f5f0	-0.07273471
229	0xbda73973	-0.081652544
230	0xbe5b16e0	-0.21395445
231	0x3d6a164d	0.057150174
232	0xbd4f775b	-0.050650936
233	0x3d515b76	0.051112615
234	0x3da2d6ea	0.07951148
235	0xbcb49209	-0.022042291
236	0x3e42379f	0.1896653
237	0xbd1b2a7e	-0.03788232
238	0x3d25690f	0.040383395
239	0x3d39fdca	0.045408048
240	0xbda1f9b4	-0.07908955
241	0x3da863a6	0.082221314
242	0xbbb85332	-0.005625152
243	0xbe70e296	-0.23523936
244	0xbdd8ea53	-0.10591569
245	0x3df00976	0.117205545
246	0x3e070b88	0.13187993
247	0xbe10f8bf	-0.14157389
248	0xbde2f4ee	-0.11081873
249	0xbbefa62f	-0.007313512
250	0x3da28661	0.07935787
251	0x3b9ab652	0.0047214413
252	0x3dd71975	0.105029024
253	0x3c92d2b7	0.017922742
254	0x3e3e9584	0.18611723
255	0xbdec6dad	-0.115443565

mlp_1/MLP_0_1/hidden_2_1/BiasAdd/ReadVariableOp:0 f4 [128]
0	0xbde88186	-0.1135283
1	0xbe23e37e	-0.1600475
2	0xbd682863	-0.05667914
3	0xbe0be3d0	-0.13661122
4	0xbe409653	-0.18807344
5	0xbe392e8e	-0.18084165
6	0xbe5d365c	-0.21602768
7	0x3a4deb43	0.0007855186
8	0xbd30b7f3	-0.043144178
9	0xbd649ba4	-0.055812493
10	0xbda77f23	-0.08178546
11	0xbdeda7c8	-0.11604267
12	0x3d0b60f9	0.034028027
13	0xbddcf842	-0.10789539
14	0xbe19f1d3	-0.15033655
15	0xbe4072ae	-0.18793747
16	0xbeb8a2b6	-0.3606164
17	0xbe13c1a1	-0.14429332
18	0xbdac33d5	-0.08408324
19	0xbe1aba68	-0.15110171
20	0xbeaef07c	-0.3416785
21	0xbeb58390	-0.35451937
22	0xbf2324ac	-0.6372783
23	0xbe367460	-0.17817831
24	0xbe4e26b2	-0.20131949
25	0xbde42678	-0.1114015
26	0x3d1cb0cb	0.03825454
27	0xbe226490	-0.15858674
28	0xbd6a8239	-0.057253096
29	0xbe007ea9	-0.12548317
30	0xbe285cc1	-0.16441633
31	0xbdf8346e	-0.12119375
32	0xbe49126d	-0.19635935
33	0xbeb62160	-0.35572338
34	0xbef082e7	-0.4697487
35	0xbe3cad88	-0.18425572
36	0x3dcaaf91	0.09896768
37	0xbdedb550	-0.11606848
38	0xbd203a9d	-0.039118398
39	0xbe11c5a2	-0.14235547
40	0xbdbabf2c	-0.091184944
41	0xbe36e7b4	-0.17861825
42	0xbf2f1f32	-0.68406975
43	0xbdedf1c9	-0.116183825
44	0xbc64d6b2	-0.013967203
45	0xbe244c38	-0.160447
46	0xbef89619	-0.48552015
47	0xbe54740e	-0.20747396
48	0xbe7b0fb4	-0.24517709
49	0xbdc53429	-0.096290894
50	0xbd8897c7	-0.06669574
51	0xbe0fcb27	-0.1404234
52	0xbdf5151a	-0.119669154
53	0xbde2010f	-0.11035358
54	0xbe1805dc	-0.14845985
55	0xbdce7a9f	-0.10081982
56	0xbe31ff2e	-0.173825
57	0xbd97020a	-0.07373436
58	0xbe0afef6	-0.13573822
59	0xbde2cd4c	-0.110743135
60	0xbd29e1d4	-0.041475132
61	0xbd8c4490	-0.06849015
62	0xbe472b92	-0.19450215
63	0xbd2d37d1	-0.04228956
64	0xbe2b6aac	-0.16739911
65	0x3b8272e6	0.003980982
66	0xbd537b65	-0.05163135
67	0xbe6e40f7	-0.2326697
68	0xbe113074	-0.1417864
69	0xbf083bd0	-0.53216267
70	0x3b7f671d	0.0038971372
71	0xbd79dc7b	-0.061001282
72	0xbdcd36d9	-0.10020227
73	0xbda6b8a9	-0.0814069
74	0xbe49fb03	-0.1972466
75	0xbe2d300c	-0.1691286
76	0xbe39c969	-0.18143238
77	0xbe3890a2	-0.18023923
78	0xbe16a28c	-0.14710444
79	0xbe01d7b5	-0.12679942
80	0xbed21a0f	-0.41035506
81	0xbdf97905	-0.12181286
82	0xbe5a2083	-0.21301465
83	0xbda78759	-0.081801124
84	0xbedf8def	-0.43662974
85	0xbcb739b6	-0.022366386
86	0xbe47483f	-0.19461153
87	0xbe0f9960	-0.14023352
88	0xbd30a63b	-0.04312728
89	0xbe37f6f6	-0.17965302
90	0xbdb2bc15	-0.0872728
91	0xbe461c59	-0.19346751
92	0xbe283562	-0.16426614
93	0xbe3e4ec4	-0.18584734
94	0xbb862b86	-0.004094544
95	0xbf2c9003	-0.67407244
96	0xbdd4801f	-0.10376
97	0xbe88a2a5	-0.26686588
98	0xbdc7b694	-0.09751621
99	0xbe53447f	-0.20631598
100	0xbd91272c	-0.070875496
101	0xbd6d5ae4	-0.05794801
102	0xbe87cb86	-0.26522464
103	0xbe5b2b78	-0.21403301
104	0xbe55c5b6	-0.20876202
105	0xbe3ab514	-0.18233138
106	0xbda69161	-0.081331976
107	0xbd7e7af4	-0.062128976
108	0xbea7f663	-0.32805166
109	0xbd869b51	-0.06572593
110	0xbd039aa8	-0.032129914
111	0xbd8220c5	-0.063539065
112	0xbecffded	-0.40623417
113	0xbe23b2f7	-0.15986238
114	0xbdce4622	-0.100719705
115	0x3c9c32fa	0.019067276
116	0xbdb083c6	-0.08618884
117	0xbd58666f	-0.052832063
118	0xbe3e7bc0	-0.18601894
119	0xbe39f888	-0.18161213
120	0xbe556e68	-0.20842898
121	0xbe894f6c	-0.26818407
122	0xbeff7244	-0.49891865
123	0xbd599c38	-0.053127497
124	0xbe071ca7	-0.13194524
125	0xbd99ea36	-0.07515375
126	0xbf48934e	-0.7834977
127	0xbdabd57c	-0.08390328

mlp_1/MLP_0_1/hidden_1_1/Cast/ReadVariableOp:0 f4 [512, 256]
0	0xbcac3397	-0.021020694
1	0x3d113902	0.035454758
2	0x3d64cd51	0.055859867
3	0x3db44d52	0.0880381
4	0xbc2cce6d	-0.010547263
5	0xbda02f8c	-0.07821569
6	0xbe4e2c08	-0.20133984
7	0x3e2fe7c8	0.17178261
8	0x3e84c72d	0.2593321
9	0xbd4a1978	-0.049340695
10	0x3d6e9b2a	0.058253445
11	0xba43e05f	-0.00074720936
12	0xbdb63427	-0.08896666
13	0xbe087384	-0.13325316
14	0x3df08e98	0.117459476
15	0x3d08b59f	0.033376332
16	0x3df86ea8	0.12130481
17	0xbd84c197	-0.06482237
18	0xbcf57089	-0.029960888
19	0x3df5481d	0.11976645
20	0xbe6a2737	-0.22866522
21	0x3e0434d5	0.12910779
22	0xbe291f2c	-0.16515797
23	0x3c8e6d0f	0.017385988
24	0x3d4dbd74	0.050229505
25	0x3dae656d	0.08515439
26	0xbcf6a3c1	-0.03010738
27	0x3d7c4185	0.06158592
28	0xbe363343	-0.17792992
29	0xbd8c9688	-0.06864649
30	0xbd921b7d	-0.07134149
31	0xbd3bce38	-0.045850962
32	0xbe99f452	-0.30069214
33	0x3d5151ee	0.051103525
34	0xbd4ace49	-0.049513135
35	0xbd32a4bb	-0.04361413
36	0x3ca47578	0.020075545
37	0xbd9ee63d	-0.07758758
38	0x3ddbec9e	0.107384905
39	0x3d2178bf	0.039421793
40	0x3ddce780	0.107863426
41	0x3d61959c	0.05507432
42	0xbd9ab3f5	-0.07553855
43	0xbd1e7cd8	-0.03869328
44	0xbd8dea40	-0.06929445
45	0x3dd76126	0.105165765
46	0xbe5290b6	-0.20563015
47	0xbb4aba5d	-0.0030933835
48	0x3df8a2cb	0.12140425
49	0x3d50b7ed	0.050956655
50	0xbb704bf1	-0.0036666358
51	0xbd80b1d4	-0.06283918
52	0xbe5b4bf3	-0.21415691
53	0x3b4e02a1	0.0031434672
54	0x3e22a1f2	0.1588209
55	0x3ea6ab22	0.3255244
56	0x3c178581	0.009248138
57	0xbd62af11	-0.055342738
58	0x3df5c3ec	0.1200026
59	0x3dcb0419	0.09912891
60	0xbdb36d95	-0.087611355
61	0xbe244461	-0.1604171
62	0x3d390861	0.045174006
63	0x3e289a6d	0.16465159
64	0x3d970187	0.07373338
65	0xbd1e6940	-0.038674593
66	0x3da31c50	0.079643846
67	0x3e162265	0.14661558
68	0xbe115e3a	-0.14196101
69	0x3e3a07b2	0.18166998
70	0x3d65004a	0.05590848
71	0x3e719587	0.23592196
72	0x3e5329f8	0.20621479
73	0x3e25f7e5	0.16207846
74	0xbf46b74d	-0.77623445
75	0xbdaa9462	-0.08329083
76	0xbca9948f	-0.020700721
77	0x3d473495	0.04863413
78	0xbe6bb52d	-0.23018332
79	0xbc8b4190	-0.016999036
80	0x3db628f3	0.08894529
81	0xbce9cd98	-0.028540418
82	0xbdb19123	-0.08670261
83	0xbdb0f68a	-0.086407736
84	0xbca98fc1	-0.02069843
85	0x3d8a0a9d	0.067403056
86	0x3d03104a	0.031997956
87	0xbdd27979	-0.10277075
88	0x3d35b146	0.044358514
89	0x3e33cb7b	0.1755809
90	0x3d230a10	0.03980452
91	0x39fca2d2	0.00048186496
92	0x3da8eee3	0.08248689
93	0xbc68b15a	-0.01420244
94	0xbae63622	-0.001756374
95	0x3e081fad	0.13293333
96	0x3ce56a7d	0.02800488
97	0xbe571af9	-0.21006383
98	0x3e143189	0.14472021
99	0xbbc367bd	-0.0059632943
100	0x3c1fb50a	0.009747753
101	0x3ceaf7af	0.028682558
102	0x3e39fdb1	0.18163182
103	0x3c83c3b2	0.016084526
104	0xbe3487ae	-0.17629883
105	0xbb8a4b95	-0.004220436
106	0xbe87862e	-0.26469558
107	0xbe63ce19	-0.22246589
108	0x3d80575b	0.06266662
109	0xbdbf5308	-0.09342009
110	0x3e23501d	0.1594853
111	0x3e16abc7	0.14713965
112	0x3d303b17	0.043025102
113	0xbe22c5b4	-0.1589573
114	0x3e4e97ec	0.20175141
115	0xbe0b5b3d	-0.13609023
116	0x3e0f5615	0.13997681
117	0x3e7143c9	0.23561014
118	0xbe29f685	-0.16597946
119	0x3e133e28	0.1437918
120	0x3e2d12f2	0.16901758
121	0x3df20017	0.118164234
122	0x3b5d4aa2	0.0033766408
123	0x3e0cc4e4	0.13746983
124	0xbd064bf5	-0.032787282
125	0xbbe12b9e	-0.0068716547
126	0x3dc29e10	0.09502804
127	0xbd279916	-0.04091748
128	0x3d3a97c3	0.045554888
129	0x3e04199c	0.12900394
130	0x3e0f514d	0.13995858
131	0x3e7f75b1	0.2494724
132	0x3c75b92d	0.014997763
133	0x3d624f96	0.05525168
134	0xbe7abe17	-0.24486576
135	0x3c9f82d6	0.019471567
136	0x3e56d183	0.2097836
137	0xbd16050e	-0.036625914
138	0x3d19bd3d	0.037533987
139	0x3e2ae2f4	0.16688138
140	0x3d446060	0.047943473
141	0x3dbad272	0.091221705
142	0xbe4d69f0	-0.20059943
143	0xbd8802bd	-0.06641147
144	0x3dd6a840	0.1048131
145	0xbd6aeef5	-0.057356793
146	0x3e064b30	0.1311462
147	0x3c865466	0.016397666
148	0x3e219cdc	0.15782493
149	0xbdd9a52f	-0.106272094
150	0xbbbb28fe	-0.0057116738
151	0x3dc81a55	0.097706474
152	0xbdc8ca15	-0.09804169
153	0xbba99338	-0.0051750205
154	0xbe22804a	-0.15869251
155	0x3d2dc2db	0.042422157
156	0x3e3554f0	0.17708182
157	0xbcdd6846	-0.02702726
158	0x3ca69cbf	0.020338414
159	0x3e0e059c	0.13869327
160	0x3dd79daa	0.10528119
161	0x3d0f0ebf	0.034926172
162	0x3d6b19a2	0.057397492
163	0xbce341b6	-0.027741294
164	0xbd35bf9d	-0.04437219
165	0xbdf8d2bc	-0.121495694
166	0xbe29a950	-0.16568494
167	0x3e128bfe	0.14311215
168	0xbb838eaa	-0.0040148096
169	0xbeabe005	-0.3356935
170	0xbe93bd85	-0.2885553
171	0xbd9e67f4	-0.07734671
172	0xbdb2a63a	-0.087231115
173	0x3cff6d95	0.031180182
174	0xbe6a7e89	-0.22899832
175	0x3ea6bb62	0.32564837
176	0x3e3dce96	0.18535838
177	0xbe443bfb	-0.19163506
178	0x3de3cbb4	0.11122838
179	0x3dd4dd81	0.10393811
180	0x3e084615	0.13307984
181	0x3d079e92	0.03311021
182	0x3d9fcfd3	0.07803311
183	0xbced8363	-0.028993314
184	0x3e19e9c6	0.15030584
185	0xbe876987	-0.26447698
186	0x3e8c52a0	0.27406788
187	0xbd1834d2	-0.03715975
188	0xbdd685f7	-0.104747705
189	0xbda9e2d2	-0.08295216
190	0x3d960f5e	0.0732715
191	0xbe0e4a27	-0.13895474
192	0x3d6cb37a	0.05778835
193	0x3e7d9358	0.24763238
194	0x3c86a670	0.016436785
195	0xbc211215	-0.009830971
196	0xbe02aca7	-0.12761174
197	0x3d4b5a7c	0.04964684
198	0x3d56f0d5	0.05247577
199	0x3d3a3f85	0.045470733
200	0xbe4d4bb4	-0.2004841
201	0xbd7ffc91	-0.062496725
202	0x3d9d3b0f	0.0767728
203	0x3e3f8e3c	0.18706602
204	0x3d81fff0	0.06347644
205	0xbdcbdfb5	-0.09954778
206	0xbe841691	-0.25798467
207	0x3dfdb7f9	0.123886056
208	0x3e15f6bc	0.14644903
209	0xbde44f3b	-0.111479245
210	0x3d476711	0.048682276
211	0x3d6f4815	0.058418352
212	0x3ce45d82	0.02787662
213	0xbd09b40b	-0.033618968
214	0xbe6794c0	-0.22615337
215	0x3d92a30f	0.07160007
216	0x3ab16946	0.0013535402
217	0x3d80406f	0.0626229
218	0xbe023e14	-0.12718993
219	0xbc8b320a	-0.016991634
220	0xbe78ef87	-0.24310122
221	0xbd0dc8e4	-0.034615412
222	0x3d61de10	0.055143416
223	0xbd12f24c	-0.035875604
224	0xbdad5114	-0.0846273
225	0xbe8857e3	-0.26629552
226	0x3cad495f	0.02115315
227	0xbdea001b	-0.11425801
228	0x3e845beb	0.25851378
229	0x3b84badb	0.004050595
230	0xbea94849	-0.33062962
231	0xbe88d96d	-0.26728383
232	0xbd0a170f	-0.033713397
233	0xbe1648ad	-0.14676161
234	0x3d9b7a92	0.07591738
235	0x3e38e203	0.18054967
236	0xbccb9fa1	-0.02485639
237	0xbde704ea	-0.11280234
238	0x3d7313f5	0.059345204
239	0xbc860319	-0.016358899
240	0x3e88821c	0.26661766
241	0x3e56dc1e	0.20982406
242	0xbdf7e6ba	-0.121045545
243	0xbdbd130a	-0.09232147
244	0xbdde2d6f	-0.108485095
245	0x3dbabfac	0.0911859
246	0xbe66223e	-0.22474
247	0x3e6df14c	0.23236579
248	0xbe7ac2e2	-0.24488404
249	0x3c8e8423	0.017396992
250	0x3cd521c2	0.026017074
251	0xbe0ee8fd	-0.13956065
252	0x3d73e562	0.05954493
253	0xbd871fbc	-0.0659785
254	0xbc88a716	-0.016681235
255	0x3db828a3	0.08992126

mlp_1/MLP_0_1/hidden_1_1/BiasAdd/ReadVariableOp:0 f4 [256]
0	0xbdb3af27	-0.08773642
1	0xbf068dfc	-0.525604
2	0xbeb72d5d	-0.35776797
3	0xbdbb74e8	-0.091531575
4	0xbe52c024	-0.20581108
5	0xbd758ec6	-0.059950612
6	0xbee1cab0	-0.4409995
7	0xbe3856c6	-0.18001851
8	0xbf0cdd47	-0.5502514
9	0xbe7cf5f1	-0.24703194
10	0xbe9fabe9	-0.31185845
11	0xbefcc836	-0.493715
12	0xbe352466	-0.17689666
13	0xbe6048c6	-0.21902761
14	0xbdcaa5d2	-0.09894909
15	0xbebfa25e	-0.37428564
16	0xbe6f540a	-0.23371902
17	0xbe387591	-0.18013598
18	0xbe00f49f	-0.12593316
19	0xbeed0f3d	-0.46300688
20	0xbeec77e3	-0.46185216
21	0xbeb257c8	-0.34832597
22	0xbeb701d9	-0.35743597
23	0xbdf4fc86	-0.119622275
24	0xbec5b342	-0.38613325
25	0xbe5f0994	-0.21780998
26	0xbeb7c825	-0.35894886
27	0xbda9f627	-0.08298903
28	0xbe4d9296	-0.2007545
29	0xbd4a38b3	-0.04937048
30	0xbeb5a59b	-0.3547791
31	0xbe767d09	-0.24071135
32	0xbe97afeb	-0.29626402
33	0xbdee0bcc	-0.11623344
34	0xbd675960	-0.05648172
35	0xbe4d1d8e	-0.20030805
36	0xbe775531	-0.24153592
37	0xbf10a23f	-0.5649757
38	0xbd3400cf	-0.043946084
39	0xbcd2f8ec	-0.02575346
40	0xbea84f48	-0.32872987
41	0xbe55efa9	-0.20892204
42	0xbe560d3b	-0.20903485
43	0xbf002a99	-0.50065
44	0xbeac5120	-0.33655643
45	0xbf09cca8	-0.53827906
46	0xbdedacee	-0.11605249
47	0xbee218e5	-0.44159618
48	0xbed6daf5	-0.41963926
49	0xbf2ed6af	-0.6829633
50	0xbe3d203a	-0.18469325
51	0xbe1cec96	-0.15324625
52	0xbec5da53	-0.3864313
53	0xbe1e38c2	-0.15451339
54	0xbe2a9e10	-0.16661859
55	0xbee6b31d	-0.45058528
56	0xbe1d6fda	-0.15374699
57	0x3dd7a5c1	0.10529662
58	0xbecb0381	-0.3965111
59	0xbe9f0c63	-0.31064138
60	0xbd86e355	-0.06586329
61	0xbe3ccf07	-0.1843835
62	0xbe40f0a6	-0.188418
63	0xbd66ceae	-0.05634945
64	0xbe8ceb13	-0.27523097
65	0xbedc42a2	-0.43019587
66	0xbe8fb507	-0.280678
67	0xbd93d753	-0.07218804
68	0xbe808a39	-0.25105456
69	0xbef6abc2	-0.48177916
70	0xbeade134	-0.3396088
71	0xbe976414	-0.2956854
72	0xbe7497e2	-0.23886064
73	0xbe08b9a1	-0.13352062
74	0xbe8ef089	-0.2791789
75	0xbec3d79c	-0.38250434
76	0xbf0b8f3c	-0.54515433
77	0xbdea1cf9	-0.11431307
78	0xbe44ba3e	-0.19211671
79	0xbe57cdcf	-0.21074603
80	0xbcc8aa25	-0.024495194
81	0xbec80872	-0.39068943
82	0xbe5235e3	-0.20528369
83	0xbdf5cd08	-0.12001997
84	0xbeab7970	-0.33491087
85	0xbe0a9568	-0.13533556
86	0xbb6a5c7b	-0.003576069
87	0xbe695375	-0.22785743
88	0xbda62622	-0.08112742
89	0xbe593cbe	-0.21214578
90	0xbe3aef86	-0.18255433
91	0xbd35759d	-0.044301618
92	0xbd8e3b74	-0.069449335
93	0xbe458597	-0.19289242
94	0xbeb96faf	-0.3621802
95	0xbe9886c3	-0.29790315
96	0xbee08aaf	-0.43855807
97	0xbe83c940	-0.2573948
98	0xbee3f9e6	-0.44526595
99	0xbe7e1690	-0.24813294
100	0xbef13c5f	-0.47116372
101	0xbe8b6449	-0.2722495
102	0xbe3cfa57	-0.18454872
103	0xbe5f6389	-0.21815313
104	0xbeeec020	-0.46630955
105	0xbe12c538	-0.14333045
106	0xbee55a75	-0.44795576
107	0xbe3ae5c9	-0.18251719
108	0xbeb3476f	-0.35015437
109	0xbe38aad7	-0.1803392
110	0xbe8278bc	-0.25482738
111	0xbe23ab98	-0.15983427
112	0xbf0fe2bb	-0.5620534
113	0xbe5b290c	-0.21402377
114	0xbe042915	-0.12906297
115	0xbe8d6360	-0.2761488
116	0xbeca3bd0	-0.39498758
117	0xbe80fa84	-0.25191128
118	0xbdfb3bea	-0.12267287
119	0xbebb1fba	-0.36547643
120	0xbeaf2001	-0.34204105
121	0xbea65814	-0.32489073
122	0xbec1029e	-0.3769731
123	0xbe2a725c	-0.16645187
124	0xbe301345	-0.1719485
125	0xbeaadc79	-0.33371332
126	0xbf102abe	-0.5631522
127	0xbd82ae35	-0.063808836
128	0xbea18378	-0.31545615
129	0x3d5109de	0.0510348
130	0xbd8b20f0	-0.06793392
131	0xbe12baf1	-0.14329125
132	0xbef4a9e5	-0.4778587
133	0xbedce129	-0.43140534
134	0xbe8567d8	-0.2605579
135	0xbecdae17	-0.40171883
136	0xbeb01001	-0.3438721
137	0xbdf7f47d	-0.12107179
138	0x3d420432	0.047367282
139	0xbebf355a	-0.37345392
140	0xbea807c3	-0.32818422
141	0xbec3164d	-0.38102952
142	0xbeffc3c6	-0.4995405
143	0xbe6256c0	-0.22103405
144	0xbf044c89	-0.51679283
145	0xbedf11b4	-0.43568194
146	0xbe9d1132	-0.3067718
147	0xbe08283c	-0.13296598
148	0xbef34614	-0.47514403
149	0x3cac92b0	0.02106604
150	0xbef983b9	-0.4873331
151	0xbecb1fd9	-0.39672735
152	0xbeac0374	-0.33596385
153	0xbe7468ec	-0.2386815
154	0xbe37bc2c	-0.17942876
155	0xbec5d47d	-0.38638678
156	0xbe3e3103	-0.18573384
157	0xbee81805	-0.45330825
158	0xbdd868ae	-0.10566841
159	0xbf19a190	-0.6001215
160	0xbf0d7d68	-0.5526948
161	0xbe44eb2c	-0.19230336
162	0xbe7b5e03	-0.24547581
163	0xbaedb579	-0.0018135748
164	0xbedea6ed	-0.4348673
165	0xbe5c3b2f	-0.21506952
166	0xbe11677c	-0.14199632
167	0xbf16d8e8	-0.5892472
168	0x3c9c5584	0.019083746
169	0xbe979c49	-0.29611424
170	0x3df7b644	0.12095311
171	0xbe2f3b88	-0.17112553
172	0xbe51671a	-0.20449486
173	0xbd859a31	-0.0652355
174	0xbea9735b	-0.33095822
175	0xbdcdfaa8	-0.100575745
176	0xbee0c7a4	-0.43902314
177	0xbe9d5ccc	-0.3073486
178	0xbe72fd73	-0.23729496
179	0xbe48d7b2	-0.19613531
180	0xbe8ef12a	-0.2791837
181	0xbf0066c1	-0.5015679
182	0xbe23f570	-0.16011596
183	0xbe2d3b5d	-0.16917177
184	0xbebef172	-0.37293583
185	0xbe9a8602	-0.30180365
186	0xbe780439	-0.24220361
187	0xbe9e692e	-0.3093962
188	0xbe3df976	-0.18552193
189	0xbd55373e	-0.052054636
190	0xbd75d0b4	-0.060013488
191	0xbe8c3821	-0.27386573
192	0xbece031b	-0.40236744
193	0xbecf722a	-0.40516788
194	0xbe585429	-0.21125855
195	0xbe72960f	-0.23690055
196	0xbe79a58d	-0.24379559
197	0xbeb378e0	-0.35053158
198	0xbe969278	-0.29408622
199	0xbdf4f074	-0.11959925
200	0xbeed139c	-0.46304023
201	0xbd874115	-0.0660421
202	0xbe1c6278	-0.15271938
203	0xbec36ea8	-0.38170362
204	0x3ddef71a	0.10886975
205	0xbe8e2ffc	-0.27770984
206	0xbee86229	-0.4538739
207	0xbf24e040	-0.6440468
208	0xbe7f3d68	-0.24925768
209	0xbe33deae	-0.17565414
210	0xbf034bdf	-0.51287645
211	0xbe435215	-0.1907428
212	0xbe499b92	-0.19688252
213	0x3d44d7b0	0.048057258
214	0x3beb2b02	0.007176758
215	0xbe1cc6f5	-0.15310271
216	0xbde505df	-0.111827604
217	0xbddc94c5	-0.10770563
218	0xbe0b2cb9	-0.13591279
219	0xbde08617	-0.109630756
220	0xbf08eefe	-0.53489673
221	0xbe101d3c	-0.14073652
222	0xbe207151	-0.15668227
223	0xbe653e7c	-0.22387117
224	0xbe3b128d	-0.18268795
225	0xbf0f00cc	-0.5586059
226	0xbe1f7bd9	-0.15574588
227	0xbe91842f	-0.2842116
228	0xbe851fc1	-0.2600079
229	0xbe2d724e	-0.16938135
230	0xbe62ecda	-0.22160664
231	0xbdef93df	-0.11698126
232	0x3cd79028	0.026313856
233	0xbf186011	-0.59521586
234	0xbee9363f	-0.455492
235	0xbe88a892	-0.2669111
236	0xbeeb60a6	-0.45972174
237	0xbf08d236	-0.53445756
238	0xbe493c9d	-0.19652028
239	0xbe31597f	-0.17319296
240	0xbeffa4af	-0.4993033
241	0xbed98c6e	-0.42489952
242	0xbe660e02	-0.22466281
243	0x3ae22b7b	0.001725539
244	0xbe227acb	-0.15867154
245	0xbea4c814	-0.32183897
246	0xbe062654	-0.13100559
247	0xbe2354b6	-0.15950283
248	0xbec9a30b	-0.39382204
249	0xbeda7917	-0.4267051
250	0xbee2cda5	-0.4429752
251	0xbeaed41b	-0.341462
252	0xbef2d1f1	-0.47425798
253	0xbe8d089d	-0.27545634
254	0xbf0b9dab	-0.5453746
255	0xbe17a7d6	-0.14810118

mlp_1/MLP_0_1/hidden_0_1/Cast/ReadVariableOp:0 f4 [103, 512]
0	0xbeeae0be	-0.4587459
1	0x3edf2636	0.4358384
2	0x3e102cc0	0.14079571
3	0x3eab5e65	0.33470455
4	0x3c81357f	0.01577258
5	0x3e4d19bf	0.20029353
6	0xbe07eb47	-0.13273345
7	0xbf1ddf93	-0.6166927
8	0x3eaf7e00	0.34275818
9	0x3ee8b063	0.45447072
10	0xbebad4f2	-0.3649059
11	0xbe540684	-0.2070561
12	0x3d01c287	0.031679656
13	0xbe8f9e4a	-0.28050452
14	0xbf60201d	-0.87549
15	0x3e2b73f9	0.16743459
16	0x3d3e59f7	0.046472516
17	0x3b2d3e1b	0.0026434723
18	0x3ec7b8a4	0.39008057
19	0xbe118207	-0.14209758
20	0x3d5a000b	0.053222697
21	0xbf420b1f	-0.7579822
22	0xbf238351	-0.6387225
23	0x3c98fb5f	0.01867455
24	0xbe4eadc5	-0.20183475
25	0x3c1ac655	0.0094467
26	0xbf6c8843	-0.9239542
27	0xbf56cd7f	-0.8390731
28	0x3ec54091	0.38525823
29	0xbdca443a	-0.098762944
30	0x3c3e1531	0.011601732
31	0xbf104e6f	-0.5636968
32	0xbec0a155	-0.37623087
33	0xbee78fd0	-0.45226908
34	0x3e9f8afa	0.31160718
35	0xbdd00595	-0.10157315
36	0x3c684ff9	0.014179223
37	0xbada906f	-0.0016675125
38	0x3f043aab	0.5165202
39	0x3dd88bbd	0.10573528
40	0x3e618ed0	0.22027135
41	0xbd3cbc80	-0.046078205
42	0xbd03012d	-0.031983543
43	0xbdc99e2c	-0.09844622
44	0x3ee42c2a	0.44564945
45	0x3e2aaa7d	0.16666599
46	0xbeaf0df7	-0.34190342
47	0x3e9d9af1	0.30782273
48	0xbf40bd76	-0.75289094
49	0x3ed53b39	0.41646746
50	0x3ecd0927	0.40046045
51	0xbe26ef46	-0.16302213
52	0xbdcb7341	-0.09934092
53	0x3e6ddc73	0.23228626
54	0x3d5015d0	0.050802052
55	0x3f1a2c92	0.6022426
56	0x3e9e3544	0.30900013
57	0xbf327d5a	-0.6972252
58	0x3de26ba2	0.110556856
59	0x3ea0e896	0.3142745
60	0x3f21fb4a	0.6327406
61	0x3d9c95b7	0.07645743
62	0xbe2ed0f9	-0.17071904
63	0x3e873b64	0.264125
64	0x3e419ac8	0.189067
65	0x3dcee1af	0.101016395
66	0x3e49dfd5	0.19714291
67	0x3f1df9ec	0.61709476
68	0xbe36e800	-0.17861938
69	0xbdab4dd1	-0.08364452
70	0xbf050794	-0.5196469
71	0x3f0e53e4	0.55596757
72	0xbe9b02f6	-0.30275697
73	0xbe6fb36f	-0.23408292
74	0xbf0a2db4	-0.5397599
75	0xbed0f8fd	-0.40814963
76	0x3e7502b7	0.23926817
77	0x3d94d8c5	0.07267908
78	0x3e91b64b	0.2845939
79	0x3e5be124	0.21472603
80	0xbc8c3fd7	-0.017120285
81	0x3e26245a	0.16224805
82	0xbe448f7d	-0.19195361
83	0x3f06aa89	0.52603966
84	0x3cd6539a	0.026162911
85	0x3ca21233	0.019784069
86	0xbe43ee31	-0.19133832
87	0x3e9baf88	0.30407357
88	0xbe3d6325	-0.18494852
89	0xbe4442c8	-0.191661
90	0xbdddac11	-0.10823835
91	0x3f10fee4	0.5663893
92	0xbe948c0b	-0.29013094
93	0xbe854a14	-0.2603308
94	0x3c78a3d2	0.015175777
95	0x3bb531a2	0.0055295983
96	0x3e9090c6	0.28235453
97	0xbf637281	-0.88846594
98	0x3eac1d4d	0.33616105
99	0x3f3cdb87	0.7377247
100	0xbed2bdaa	-0.41160327
101	0xbd7e48dd	-0.062081207
102	0xbe7fce71	-0.24981095
103	0x3df76bd1	0.12081111
104	0x3e9d0b9f	0.3067293
105	0xbc8b5815	-0.017009774
106	0x3ef0c589	0.47025707
107	0xbd504d83	-0.05085517
108	0x3e1bc94e	0.1521351
109	0xbde63e72	-0.11242379
110	0xbe22827c	-0.15870088
111	0x3da99f78	0.082823694
112	0xbec84f2e	-0.3912291
113	0x3e74643d	0.23866363
114	0x3d1ba261	0.037996653
115	0xbe4aa11f	-0.19788025
116	0xbe27d5e1	-0.16390182
117	0xbee92ff7	-0.45544407
118	0x3e950927	0.29108545
119	0xbe9cfe85	-0.30662933
120	0xbe6fcca7	-0.23417912
121	0x3d071a8c	0.0329843
122	0x3d08543c	0.033283457
123	0xbd901bbd	-0.07036541
124	0xbe8dd6ef	-0.27703044
125	0xbf6514bd	-0.8948477
126	0xbea405d6	-0.32035702
127	0xbe999363	-0.2999526
128	0xbeea58f1	-0.45770982
129	0xbcdb5857	-0.026775522
130	0xbebcaaa1	-0.3684893
131	0xbeb3cdf8	-0.3511808
132	0xbee397a7	-0.4445164
133	0xbda5c298	-0.080937564
134	0x3eec90e7	0.46204302
135	0x3daf2306	0.08551602
136	0xbe866e54	-0.2625605
137	0xbdbcb727	-0.09214621
138	0x3e39a480	0.18129158
139	0x3de899f2	0.11357488
140	0xbdf5ffc0	-0.12011671
141	0x3d07464e	0.033026032
142	0x3e33b9d8	0.17551363
143	0x3e6d94aa	0.23201242
144	0x3deef156	0.11667125
145	0xbe6935fc	-0.227745
146	0xbeb3c437	-0.35110638
147	0x3e8e897e	0.27839273
148	0x3d57cf1d	0.052687753
149	0xbeb322d7	-0.34987518
150	0x3dd66988	0.10469347
151	0x3ed09a5a	0.4074276
152	0xbe0a6e57	-0.13518654
153	0x3e5acfaa	0.2136828
154	0x3d0975bf	0.033559557
155	0x3e174b68	0.14774859
156	0x3e7bfb56	0.24607596
157	0xbee9a37c	-0.4563254
158	0xbe735229	-0.2376181
159	0xbd98b773	-0.07456865
160	0x3d8774fd	0.066141106
161	0xbede82a0	-0.43459034
162	0x3cc482dd	0.023988182
163	0x3e538b59	0.20658626
164	0xbe499fe1	-0.19689895
165	0xbeb0b279	-0.34511164
166	0x3f116951	0.56801325
167	0x3ee38475	0.44436994
168	0x3e820ff4	0.25402796
169	0xbe8f6fca	-0.28014976
170	0x3e081c59	0.13292064
171	0x3e64d3e2	0.22346452
172	0x3e765902	0.24057391
173	0xbf109cc8	-0.5648923
174	0x3e4ed1ac	0.20197171
175	0xba55baa6	-0.0008153118
176	0x3f01867f	0.5059585
177	0xbd1c1112	-0.038102217
178	0xbe8e0276	-0.27736253
179	0xbebb53b0	-0.36587286
180	0xbe1954f5	-0.14973815
181	0x3e6e4ace	0.23270723
182	0x3e86fd6d	0.26365224
183	0x3c0b1b75	0.008490433
184	0x3d0ae7a3	0.033912312
185	0x3ed0bc0d	0.4076847
186	0x3e546659	0.20742168
187	0xbeed35a4	-0.46329987
188	0x3e5e4a20	0.21707964
189	0xbe74bec8	-0.23900902
190	0x3d93ae68	0.07211
191	0x3de7afad	0.11312804
192	0x3d50bf65	0.050963778
193	0xbc780ee5	-0.01514027
194	0xbf3a3817	-0.72741836
195	0x3e496bbc	0.19670004
196	0x3de547ea	0.11195357
197	0x3f087ddc	0.53317046
198	0x3e72052d	0.23634787
199	0xbe990547	-0.2988684
200	0x3e3ce1af	0.18445466
201	0xbd6eb533	-0.058278274
202	0xbe21af5e	-0.15789554
203	0x3e6f0a5c	0.23343796
204	0xbe7cbafb	-0.24680702
205	0xbeaa72b0	-0.33290625
206	0xbdb0dd06	-0.08635907
207	0x3e1eabe8	0.15495265
208	0x3cef822e	0.02923688
209	0x3cd114e7	0.025522662
210	0x3e184f1f	0.14873932
211	0xbc39a920	-0.011331826
212	0x3e06a752	0.13149765
213	0x3e484a96	0.19559702
214	0x3d48a6ee	0.04898732
215	0xbdc90240	-0.09814882
216	0x3e82ff9d	0.25585642
217	0x3d0e1efd	0.03469752
218	0x3bfe0442	0.0077519724
219	0xbdad86de	-0.084729895
220	0x3ec333f7	0.38125584
221	0x3e028842	0.1274729
222	0xbd0faecf	-0.03507882
223	0x3e1af283	0.15131573
224	0x3e1f5853	0.15561037
225	0x3e1b576a	0.15170065
226	0xbcc86937	-0.024464233
227	0x3d3cee3e	0.046125643
228	0x3e0a001d	0.13476606
229	0xbd155cd1	-0.03646547
230	0x3e958514	0.29203093
231	0xbe85a043	-0.26098832
232	0x3c64dfe7	0.013969398
233	0xbd9d8449	-0.07691247
234	0x3eb2ae57	0.34898636
235	0x3e93637a	0.28786832
236	0xbeaf7df5	-0.34275785
237	0xbda47a77	-0.08031171
238	0xbd429027	-0.047500756
239	0x3e16f7f5	0.14743026
240	0x3f0a1219	0.53933865
241	0x3e259f44	0.16174036
242	0x3ec7a2df	0.38991448
243	0x3d002da0	0.03129351
244	0xbefdcdcd	-0.49571076
245	0x3edc73ed	0.43057194
246	0xbe2d8967	-0.16946946
247	0xbae19e1c	-0.0017213258
248	0xbee0f29c	-0.43935096
249	0x3f0dc5c1	0.55379874
250	0xbf0679ee	-0.525298
251	0xbf024b32	-0.5089599
252	0x3d8471f2	0.06467046
253	0xbee50a67	-0.447345
254	0xbf2420a1	-0.6411229
255	0xbe9936ae	-0.2992453

mlp_1/MLP_0_1/hidden_0_1/BiasAdd/ReadVariableOp:0 f4 [512]
0	0xbf0e31d1	-0.55544764
1	0xbca8a8bb	-0.02058827
2	0xbf42f200	-0.7615051
3	0xbef15f1b	-0.47142872
4	0xbe8b9279	-0.27260187
5	0xbf4e2c54	-0.8053639
6	0xbef87bc3	-0.48531923
7	0xbee92e5c	-0.45543182
8	0xbefc16fa	-0.4923628
9	0xbf01839e	-0.50591457
10	0xbf3b60e7	-0.73194736
11	0xbefecea3	-0.49767026
12	0xbed69e08	-0.41917443
13	0xbf3a8105	-0.7285312
14	0xbe7047bc	-0.23464864
15	0xbf4fac79	-0.8112255
16	0xbf4d337d	-0.8015669
17	0xbf364bfa	-0.7120968
18	0xbd5e3ab4	-0.054255202
19	0xbf028027	-0.50976795
20	0x3e31eaea	0.17374769
21	0xbec41f82	-0.3830529
22	0xbeb68094	-0.35644972
23	0xbf3e1e8a	-0.7426535
24	0xbf075eac	-0.5287883
25	0xbf8d38fb	-1.1033014
26	0x3d1efb02	0.0388136
27	0xbd276f0d	-0.04087739
28	0xbf0f499b	-0.5597169
29	0xbf7eb41e	-0.99493587
30	0xbe5a11de	-0.21295878
31	0xbf06e612	-0.5269481
32	0xbeed20d0	-0.46314096
33	0xbf65b4ff	-0.89729303
34	0xbe5ff949	-0.21872438
35	0xbf258bee	-0.6466664
36	0xbf4de763	-0.80431193
37	0xbf2652eb	-0.6497027
38	0xbeb582b0	-0.3545127
39	0xbef4dbd5	-0.4782397
40	0xbf1af88e	-0.60535514
41	0xbf5dfff1	-0.8671866
42	0xbf101c82	-0.562935
43	0xbf233c9b	-0.6376435
44	0xbe4b9b78	-0.19883525
45	0xbe80479a	-0.25054628
46	0xbf1e1caa	-0.6176249
47	0xbe8a174a	-0.26970893
48	0xbef4343a	-0.47696096
49	0xbf241a5d	-0.6410273
50	0xbf08734b	-0.53300923
51	0xbf1c272b	-0.60997266
52	0xbf43a49b	-0.76423043
53	0xbf11595b	-0.5677697
54	0xbf0653d6	-0.52471673
55	0xbcec866e	-0.028872695
56	0xbf285983	-0.65761584
57	0xbe867744	-0.26262867
58	0xbf359961	-0.7093716
59	0xbf5f5d46	-0.872517
60	0xbd954ae5	-0.072896756
61	0xbeefde9d	-0.46849528
62	0xbe059ead	-0.13048811
63	0xbf165c62	-0.58734715
64	0xbecc39ec	-0.3988794
65	0xbf6863e1	-0.90777403
66	0xbe92f1f9	-0.28700235
67	0xbf1b59a0	-0.6068363
68	0xbf375f94	-0.71630216
69	0xbf12ddba	-0.5736958
70	0xbe0b43cb	-0.1360008
71	0xbeb58df3	-0.3545986
72	0xbf13702a	-0.57593024
73	0xbf24d87e	-0.6439284
74	0xbef595a0	-0.47965717
75	0xbf0f1ddb	-0.5590493
76	0xbf1c40a4	-0.61036134
77	0xbf02ffc5	-0.51171523
78	0xbdb1f53c	-0.08689353
79	0xbf479253	-0.7795765
80	0xbf7ff52c	-0.9998348
81	0xbeb30587	-0.34965155
82	0xbf4c7a10	-0.7987375
83	0xbe88d4d0	-0.26724863
84	0xbf5837db	-0.8446023
85	0xbf0b3714	-0.5438092
86	0xbf4b94f9	-0.7952419
87	0xbf33018e	-0.6992425
88	0xbf8efc42	-1.1170733
89	0xbf20dcce	-0.6283692
90	0xbf7c65ba	-0.9859272
91	0xbf10923d	-0.5647314
92	0xbf66916f	-0.90065664
93	0xbee00190	-0.43751192
94	0xbeec7370	-0.46181822
95	0xbea32b59	-0.3186901
96	0xbf0ab9c2	-0.54189694
97	0xbcfdbad1	-0.03097287
98	0xbf159b37	-0.58439964
99	0xbd6c8628	-0.05774513
100	0xbf84b420	-1.036747
101	0xbf2b1da7	-0.6684212
102	0xbee9152d	-0.45523968
103	0xbf0c62ac	-0.5483806
104	0xbe454563	-0.1926475
105	0xbe21fe98	-0.15819776
106	0xbe890059	-0.26758078
107	0xbd1e1186	-0.03859093
108	0xbf0a58ec	-0.54041934
109	0xbf1d3e9f	-0.6142368
110	0xbf6e1ecd	-0.9301575
111	0xbf5a5ae1	-0.8529492
112	0xbed2d180	-0.4117546
113	0xbf3fcc6c	-0.749213
114	0xbf20a784	-0.6275561
115	0xbe891229	-0.26771668
116	0xbf126cb7	-0.57197136
117	0xbeea2390	-0.45730257
118	0xbf3c281c	-0.734987
119	0xbe81bd9e	-0.2533998
120	0xbf4b3bca	-0.79388106
121	0xbf2944be	-0.6612052
122	0xbe48fbed	-0.19627352
123	0xbe55cacc	-0.20878142
124	0xbf6619b8	-0.89882994
125	0xbdbfe0eb	-0.093690716
126	0xbf2b1825	-0.66833717
127	0xbf704f21	-0.9387074
128	0xbf38d653	-0.7220203
129	0xbefb05a2	-0.49027735
130	0xbf28d79e	-0.65954006
131	0xbf7cbf85	-0.98729736
132	0xbeaa2e80	-0.33238602
133	0xbf29325e	-0.6609248
134	0xbf140d5e	-0.57832897
135	0xbf281c31	-0.65668017
136	0xbf25a1c6	-0.6469997
137	0xbf14a211	-0.58059794
138	0xbf49c803	-0.7882082
139	0xbee65e65	-0.44993892
140	0xbeea2d0e	-0.457375
141	0xbf10967e	-0.5647963
142	0xbf3f3ab6	-0.7469896
143	0xbed6af05	-0.41930404
144	0xbeea1018	-0.45715404
145	0xbf2acc42	-0.6671792
146	0xbf3a8ac8	-0.72868013
147	0xbf2687f9	-0.6505123
148	0xbf49fb0d	-0.788987
149	0xbf4396d7	-0.7640204
150	0xbf60d2b0	-0.87821484
151	0xbe9b5276	-0.3033635
152	0xbf3575d3	-0.7088291
153	0xbea73e57	-0.3266475
154	0xbf0e6727	-0.5562615
155	0xbf4ff223	-0.81228846
156	0xbf255625	-0.6458457
157	0xbf060c6c	-0.52362704
158	0xbf2f85de	-0.6856364
159	0xbf5bff8f	-0.85936826
160	0xbe2a2b9e	-0.16618201
161	0xbf3d8e51	-0.7404528
162	0xbf0ae63f	-0.5425758
163	0xbf540e0c	-0.82833934
164	0xbf25b25d	-0.64725286
165	0xbf06a57c	-0.5259626
166	0xbeb3bd39	-0.35105303
167	0xbc81670b	-0.015796205
168	0xbf59a0a1	-0.85010725
169	0xbf0b5c6d	-0.54437906
170	0xbf56274b	-0.83653706
171	0xbf4dbf59	-0.803701
172	0xbf429e84	-0.76023126
173	0x3a0d2c6f	0.0005385344
174	0xbf0e8bd3	-0.55682105
175	0xbef5a909	-0.47980526
176	0xbf35ab01	-0.70964056
177	0xbf2ec6c1	-0.68272024
178	0xbf0c0a09	-0.5470281
179	0xbf28ba33	-0.6590912
180	0xbf03a8d8	-0.5142951
181	0xbeb73d86	-0.35789126
182	0xbf55e962	-0.8355924
183	0xbf3fafb4	-0.74877477
184	0xbe01118b	-0.12604348
185	0xbe3b9059	-0.18316783
186	0xbf07d55f	-0.53059953
187	0x3dde12ce	0.108434305
188	0xbf0de265	-0.55423576
189	0xbf23e9c6	-0.64028585
190	0xbf3d22c9	-0.738812
191	0xbf4fabad	-0.8112133
192	0xbf59f632	-0.8514129
193	0xbef6fe74	-0.48241007
194	0x3db0c38c	0.086310476
195	0xbf1fbcd3	-0.623975
196	0xbf3d02be	-0.7383231
197	0x3e0da8b2	0.13833883
198	0xbebd60af	-0.36987826
199	0xbf0c21c7	-0.5473904
200	0xbf05b634	-0.52231145
201	0xbe9243fd	-0.28567496
202	0xbdb2ec2a	-0.08736451
203	0xbf3cce01	-0.73751837
204	0xbf0ceca0	-0.5504856
205	0xbf088e29	-0.5334192
206	0xbf58af72	-0.8464271
207	0xbf7bacc9	-0.98310524
208	0xbf2f898a	-0.6856924
209	0xbe672771	-0.2257364
210	0xbf255544	-0.6458323
211	0xbd9c2025	-0.076233186
212	0xbf08b4fe	-0.5340117
213	0xbf69e66a	-0.9136721
214	0xbf6bc510	-0.9209757
215	0xbf1d28a2	-0.61390126
216	0xbee2130a	-0.4415515
217	0xbf43fe62	-0.7656003
218	0xbf18402a	-0.59472907
219	0xbf127724	-0.57213044
220	0xbf399451	-0.7249194
221	0xbf0701a8	-0.527369
222	0xbf039cf9	-0.51411396
223	0xbf127a95	-0.57218295
224	0xbf0d35e3	-0.5516035
225	0xbe412d19	-0.1886486
226	0xbef46637	-0.47734234
227	0xbea10b3f	-0.31453893
228	0xbf6c49cf	-0.9230012
229	0xbefde0cc	-0.4958557
230	0xbf79ee17	-0.9762892
231	0xbf84adf8	-1.0365591
232	0xbf06afb7	-0.5261187
233	0xbf4471be	-0.76736057
234	0xbf0c0a60	-0.5470333
235	0xbf55200c	-0.83252025
236	0xbe47f7c6	-0.19528112
237	0xbeb9372f	-0.36174914
238	0xbf11d413	-0.56964225
239	0xbf85ebf7	-1.0462636
240	0xbe23fe10	-0.16014886
241	0xbf8b331d	-1.0874974
242	0xbbff775c	-0.007796211
243	0xbea9d591	-0.3317075
244	0xbefcac66	-0.4935028
245	0xbedd3997	-0.43208
246	0xbf59d110	-0.8508463
247	0xbf185d15	-0.5951703
248	0xbeb96c06	-0.36215228
249	0xbf6b6af0	-0.9196005
250	0xbe03d4f1	-0.128742
251	0xbf303a34	-0.6883881
252	0xbefa64e2	-0.48905092
253	0xbefb96cc	-0.49138486
254	0xbe947661	-0.28996566
255	0xbf293891	-0.6610194
